================================================================================
Lightweight traffic forecasting framework
model: rnp_mamba_v11
data_dir: /root/autodl-tmp/BasicTS/datasets/PEMS08
device: cuda:0
input_len: 12
output_len: 12
epochs: 3
batch_size: 64
================================================================================
train_data shape: (10713, 170)
num_nodes: 170
scaler mean shape: (1, 170)
scaler std shape: (1, 170)
RNPMambaV11(
  (value_proj): Linear(in_features=1, out_features=64, bias=True)
  (identity_proj): Linear(in_features=96, out_features=64, bias=True)
  (identity_norm): LayerNorm((64,), eps=1e-05, elementwise_affine=True)
  (smoother): TemporalMovingAverage()
  (recurring_branch): FeedForwardBranch(
    (norm): LayerNorm((64,), eps=1e-05, elementwise_affine=True)
    (ffn): Sequential(
      (0): Linear(in_features=64, out_features=128, bias=True)
      (1): GELU(approximate='none')
      (2): Dropout(p=0.15, inplace=False)
      (3): Linear(in_features=128, out_features=64, bias=True)
      (4): Dropout(p=0.15, inplace=False)
    )
  )
  (nonrecurring_branch): NodeWiseMambaBranch(
    (mamba): Mamba(
      (in_proj): Linear(in_features=64, out_features=128, bias=False)
      (conv1d): Conv1d(64, 64, kernel_size=(2,), stride=(1,), padding=(1,), groups=64)
      (act): SiLU()
      (x_proj): Linear(in_features=64, out_features=36, bias=False)
      (dt_proj): Linear(in_features=4, out_features=64, bias=True)
      (out_proj): Linear(in_features=64, out_features=64, bias=False)
    )
    (norm): LayerNorm((64,), eps=1e-05, elementwise_affine=True)
    (dropout): Dropout(p=0.15, inplace=False)
  )
  (fusion_gate): Sequential(
    (0): LayerNorm((128,), eps=1e-05, elementwise_affine=True)
    (1): Linear(in_features=128, out_features=64, bias=True)
    (2): Sigmoid()
  )
  (prediction_head): Sequential(
    (0): LayerNorm((64,), eps=1e-05, elementwise_affine=True)
    (1): Linear(in_features=64, out_features=64, bias=True)
    (2): GELU(approximate='none')
    (3): Dropout(p=0.15, inplace=False)
    (4): Linear(in_features=64, out_features=12, bias=True)
  )
)
Trainable parameters: 67948

Epoch 1/3
lr: 0.002
  0%|                                                                                           | 0/168 [00:00<?, ?it/s]  0%|                                                                              | 0/168 [00:00<?, ?it/s, loss=0.8841]  1%|▍                                                    
…
