================================================================================
Lightweight traffic forecasting framework
model: rnp_mamba_v2_lite
data_dir: /root/autodl-tmp/BasicTS/datasets/PEMS08
device: cuda:0
input_len: 12
output_len: 12
epochs: 100
batch_size: 64
================================================================================
train_data shape: (10713, 170)
num_nodes: 170
scaler mean shape: (1, 170)
scaler std shape: (1, 170)
RNPMambaV2Lite(
  (raw_decomp): RawMovingAverageDecomposition()
  (rec_value_proj): Linear(in_features=1, out_features=64, bias=True)
  (non_value_proj): Linear(in_features=1, out_features=64, bias=True)
  (identity_proj): Linear(in_features=96, out_features=64, bias=True)
  (identity_norm): LayerNorm((64,), eps=1e-05, elementwise_affine=True)
  (rec_temporal): TemporalMLPBranch(
    (temporal_mixer): Linear(in_features=12, out_features=12, bias=True)
    (norm): LayerNorm((64,), eps=1e-05, elementwise_affine=True)
    (ffn): Sequential(
      (0): Linear(in_features=64, out_features=128, bias=True)
      (1): GELU(approximate='none')
      (2): Dropout(p=0.15, inplace=False)
      (3): Linear(in_features=128, out_features=64, bias=True)
      (4): Dropout(p=0.15, inplace=False)
    )
  )
  (non_temporal): BiTemporalMambaBranch(
    (mamba_fwd): Mamba(
      (in_proj): Linear(in_features=64, out_features=128, bias=False)
      (conv1d): Conv1d(64, 64, kernel_size=(2,), stride=(1,), padding=(1,), groups=64)
      (act): SiLU()
      (x_proj): Linear(in_features=64, out_features=36, bias=False)
      (dt_proj): Linear(in_features=4, out_features=64, bias=True)
      (out_proj): Linear(in_features=64, out_features=64, bias=False)
    )
    (mamba_bwd): Mamba(
      (in_proj): Linear(in_features=64, out_features=128, bias=False)
      (conv1d): Conv1d(64, 64, kernel_size=(2,), stride=(1,), padding=(1,), groups=64)
      (act): SiLU()
      (x_proj): Linear(in_features=64, out_features=36, bias=False)
      (dt_proj): Linear(in_features=4, out_features=64, bias=True)
      (out_proj): Linear(in_features=64, out_features=64, bias=False)
    )
    (out_proj): Linear(in_features=128, out_features=64, bias=True)
    (norm): LayerNorm((64,), eps=1e-05, elementwise_affine=True)
    (dropout): Dropout(p=0.15, inplace=False)
  )
  (rec_agg): TimeAwareAggregation(
    (selector): Sequential(
      (0): LayerNorm((64,), eps=1e-05, elementwise_affine=True)
      (1): Linear(in_features=64, out_features=32, bias=True)
      (2): GELU(approximate='none')
      (3): Dropout(p=0.15, inplace=False)
      (4): Linear(in_features=32, out_features=1, bias=True)
    )
  )
  (non_agg): TimeAwareAggregation(
    (selector): Sequential(
      (0): LayerNorm((64,), eps=1e-05, elementwise_affine=True)
      (1): Linear(in_features=64, out_features=32, bias=True)
      (2): GELU(approximate='none')
      (3): Dropout(p=0.15, inplace=False)
      (4): Linear(in_features=32, out_features=1, bias=True)
    )
  )
  (rec_spatial): AdaptiveSpatialMixer(
    (proj): Linear(in_features=64, out_features=64, bias=True)
    (dropout): Dropout(p=0.15, inplace=False)
  )
  (non_spatial): DynamicTopKSpatialMixer(
    (q_proj): Linear(in_features=64, out_features=64, bias=True)
    (k_proj): Linear(in_features=64, out_features=64, bias=True)
    (v_proj): Linear(in_features=64, out_features=64, bias=True)
    (out_proj): Linear(in_features=64, out_features=64, bias=True)
    (dropout): Dropout(p=0.15, inplace=False)
  )
  (fusion_gate): Sequential(
    (0): LayerNorm((192,), eps=1e-05, elementwise_affine=True)
    (1): Linear(in_features=192, out_features=64, bias=True)
    (2): GELU(approximate='none')
    (3): Dropout(p=0.15, inplace=False)
    (4): Linear(in_features=64, out_features=64, bias=True)
    (5): Sigmoid()
  )
  (prediction_head): STIDStylePostFusionHead(
    (encoder): Sequential(
      (0): STIDStyleResidualMLP(
        (fc1): Conv2d(64, 64, kernel_size=(1, 1), stride=(1, 1))
        (fc2): Conv2d(64, 64, kernel_size=(1, 1), stride=(1, 1))
        (act): ReLU()
        (drop): Dropout(p=0.15, inplace=False)
      )
      (1): STIDStyleResidualMLP(
        (fc1): Conv2d(64, 64, kernel_size=(1, 1), stride=(1, 1))
        (fc2): Conv2d(64, 64, kernel_size=(1, 1), stride=(1, 1))
        (act): ReLU()
        (drop): Dropout(p=0.15, inplace=False)
      )
    )
    (regression_layer): Conv2d(64, 12, kernel_size=(1, 1), stride=(1, 1))
  )
)
Trainable parameters: 144140

Epoch 1/100
lr: 0.002
  0%|                                                                                           | 0/168 [00:00<?, ?it/s]  0%|                                                                              | 0/168 [00:00<?, ?it/s, loss=0.9939]  1%|▍                                                  
…
